…
	Number of train images: 689
	Dataset enlarge ratio: 1
	Batch size per gpu: 2
	World size (gpu number): 1
	Require iter number per epoch: 345
	Total epochs: 232; iters: 80000.
2026-01-11 23:36:11,474 INFO: Dataset Dataset_PairedImage - ValSet is created.
2026-01-11 23:36:11,474 INFO: Number of val images/folders in ValSet: 100
2026-01-11 23:36:13,870 INFO: Network: DINOEncoderDecoder, with parameters: 845,654,147
2026-01-11 23:36:13,870 INFO: DINOEncoderDecoder(
  (dino_extractor): DINOFeatureExtractor(
    (dino): DINOv3ViTModel(
      (embeddings): DINOv3ViTEmbeddings(
        (patch_embeddings): Conv2d(3, 1280, kernel_size=(16, 16), stride=(16, 16))
      )
      (rope_embeddings): DINOv3ViTRopePositionEmbedding()
      (layer): ModuleList(
        (0-31): 32 x DINOv3ViTLayer(
          (norm1): LayerNorm((1280,), eps=1e-05, elementwise_affine=True)
          (attention): DINOv3ViTAttention(
            (k_proj): Linear(in_features=1280, out_features=1280, bias=False)
            (v_proj): Linear(in_features=1280, out_features=1280, bias=True)
            (q_proj): Linear(in_features=1280, out_features=1280, bias=True)
            (o_proj): Linear(in_features=1280, out_features=1280, bias=True)
          )
          (layer_scale1): DINOv3ViTLayerScale()
          (drop_path): Identity()
          (norm2): LayerNorm((1280,), eps=1e-05, elementwise_affine=True)
          (mlp): DINOv3ViTGatedMLP(
            (gate_proj): Linear(in_features=1280, out_features=5120, bias=True)
            (up_proj): Linear(in_features=1280, out_features=5120, bias=True)
            (down_proj): Linear(in_features=5120, out_features=1280, bias=True)
            (act_fn): SiLUActivation()
          )
          (layer_scale2): DINOv3ViTLayerScale()
        )
      )
      (norm): LayerNorm((1280,), eps=1e-05, elementwise_affine=True)
    )
  )
  (decoder): FPNDecoder(
    (proj_deep): Conv2d(1280, 384, kernel_size=(1, 1), stride=(1, 1))
    (proj_middle): Conv2d(1280, 192, kernel_size=(1, 1), stride=(1, 1))
    (proj_shallow): Conv2d(1280, 96, kernel_size=(1, 1), stride=(1, 1))
    (up3_2): SmoothUpsampler(
      (upsample): Sequential(
        (0): Conv2d(384, 768, kernel_size=(3, 3), stride=(1, 1), padding=(1, 1))
        (1): PixelShuffle(upscale_factor=2)
        (2): Conv2d(192, 192, kernel_size=(3, 3), stride=(1, 1), padding=(1, 1))
        (3): GELU(approximate='none')
      )
    )
    (blend3_2): PatchBoundaryBlender(
      (blend): Sequential(
        (0): Conv2d(192, 192, kernel_size=(5, 5), stride=(1, 1), padding=(2, 2), groups=192)
        (1): Conv2d(192, 192, kernel_size=(1, 1), stride=(1, 1))
        (2): GELU(approximate='none')
      )
    )
    (fuse3_2): Conv2d(384, 192, kernel_size=(1, 1), stride=(1, 1))
    (up2_1): SmoothUpsampler(
      (upsample): Sequential(
        (0): Conv2d(192, 384, kernel_size=(3, 3), stride=(1, 1), padding=(1, 1))
        (1): PixelShuffle(upscale_factor=2)
        (2): Conv2d(96, 96, kernel_size=(3, 3), stride=(1, 1), padding=(1, 1))
        (3): GELU(approximate='none')
      )
    )
    (blend2_1): PatchBoundaryBlender(
      (blend): Sequential(
        (0): Conv2d(96, 96, kernel_size=(5, 5), stride=(1, 1), padding=(2, 2), groups=96)
        (1): Conv2d(96, 96, kernel_size=(1, 1), stride=(1, 1))
        (2): GELU(approximate='none')
      )
    )
    (fuse2_1): Conv2d(192, 96, kernel_size=(1, 1), stride=(1, 1))
    (up1_0): SmoothUpsampler(
      (upsample): Sequential(
        (0): Conv2d(96, 192, kernel_size=(3, 3), stride=(1, 1), padding=(1, 1))
        (1): PixelShuffle(upscale_factor=2)
        (2): Conv2d(48, 48, kernel_size=(3, 3), stride=(1, 1), padding=(1, 1))
        (3): GELU(approximate='none')
      )
    )
    (blend1_0): PatchBoundaryBlender(
      (blend): Sequential(
        (0): Conv2d(48, 48, kernel_size=(5, 5), stride=(1, 1), padding=(2, 2), groups=48)
        (1): Conv2d(48, 48, kernel_size=(1, 1), stride=(1, 1))
        (2): GELU(approximate='none')
      )
    )
    (up0_out): SmoothUpsampler(
      (upsample): Sequential(
        (0): Conv2d(48, 192, kernel_size=(3, 3), stride=(1, 1), padding=(1, 1))
        (1): PixelShuffle(upscale_factor=2)
        (2): Conv2d(48, 48, kernel_size=(3, 3), stride=(1, 1), padding=(1, 1))
        (3): GELU(approximate='none')
      )
    )
    (blend_out): PatchBoundaryBlender(
      (blend): Sequential(
        (0): Conv2d(48, 48, kernel_size=(5, 5), stride=(1, 1), padding=(2, 2), groups=48)
        (1): Conv2d(48, 48, kernel_size=(1, 1), stride=(1, 1))
        (2): GELU(approximate='none')
      )
    )
    (output): Sequential(
      (0): Conv2d(48, 48, kernel_size=(3, 3), stride=(1, 1), padding=(1, 1))
      (1): GELU(approximate='none')
      (2): Conv2d(48, 3, kernel_size=(3, 3), stride=(1, 1), padding=(1, 1))
    )
  )
)
2026-01-11 23:36:13,873 INFO: Use Exponential Moving Average with decay: 0.999
2026-01-11 23:36:15,347 INFO: Using DINO model from network for semantic loss
2026-01-11 23:36:16,068 INFO: Using DINOCompositeLoss: rec=1.0, ssim=0.8, per=0.05, sem=0.02
2026-01-11 23:36:16,069 WARNING: Params dino_extractor.dino.embeddings.cls_token will not be optimized.
…
